data/sine_model.tflite (tflite, 2512 bytes, 3 tensors)

sequential_1/dense_2/MatMul/ReadVariableOp/transpose i1 [16, 1] scale=0.0037158232 zero_point=0
000000 19 40 4a 52 b5 95 a8 d3 6a 7f 7a 2a dd 46 e4 d5
       0.09289558 0.23781268 0.27497092 0.3046975 -0.27868673 -0.39759308 -0.32699245 -0.16721204 0.39387727 0.47190955 0.45333043 0.15606457 -0.13005382 0.26010764 -0.10404305 -0.1597804

sequential_1/dense_3/MatMul/ReadVariableOp/transpose i1 [16, 16] scale=0.0071601463 zero_point=0
000000 14 c2 10 f6 f7 e0 de ce ee 96 b2 2d 34 3b 4b 1b
       0.14320293 -0.44392908 0.11456234 -0.071601465 -0.064441316 -0.22912468 -0.24344498 -0.3580073 -0.12888263 -0.7589755 -0.5584914 0.3222066 0.3723276 0.42244864 0.53701097 0.19332395
000010 fd 81 d6 0a 15 ca 10 c8 ee ff c7 f9 1e 40 e3 ec
       -0.02148044 -0.9093386 -0.30072615 0.071601465 0.15036307 -0.3866479 0.11456234 -0.4009682 -0.12888263 -0.0071601463 -0.40812835 -0.050121024 0.21480438 0.45824936 -0.20764424 -0.14320293
000020 14 ac c7 c7 21 3c f4 f8 e3 2c c2 ff db 3d 2f 39
       0.14320293 -0.6014523 -0.40812835 -0.40812835 0.23628482 0.42960876 -0.08592176 -0.05728117 -0.20764424 0.31504643 -0.44392908 -0.0071601463 -0.26492542 0.43676892 0.33652687 0.40812835
000030 1d f2 2e 01 db 13 35 e9 d8 cf 24 da f4 f7 0b dc
       0.20764424 -0.10024205 0.3293667 0.0071601463 -0.26492542 0.13604277 0.37948775 -0.16468336 -0.28640586 -0.35084715 0.25776526 -0.27208555 -0.08592176 -0.064441316 0.07876161 -0.25776526
000040 29 cb c5 12 02 cc 22 2d bf 0e 36 10 f8 35 46 0d
       0.293566 -0.37948775 -0.42244864 0.12888263 0.0143202925 -0.3723276 0.24344498 0.3222066 -0.46540952 0.10024205 0.3866479 0.11456234 -0.05728117 0.37948775 0.5012102 0.0930819
000050 1c 47 35 da d8 fc cc 15 41 e5 36 35 3b c8 fd da
       0.2004841 0.5083704 0.37948775 -0.27208555 -0.28640586 -0.028640585 -0.3723276 0.15036307 0.46540952 -0.19332395 0.3866479 0.37948775 0.42244864 -0.4009682 -0.02148044 -0.27208555
000060 cf 15 e4 c5 00 d6 ce e3 03 1b e2 03 c8 de c6 f2
       -0.35084715 0.15036307 -0.2004841 -0.42244864 0.0 -0.30072615 -0.3580073 -0.20764424 0.02148044 0.19332395 -0.21480438 0.02148044 -0.4009682 -0.24344498 -0.41528848 -0.10024205
000070 e6 ee e9 bb 1b ee 21 07 0b 07 29 3d 13 ff f1 2c
       -0.1861638 -0.12888263 -0.16468336 -0.4940501 0.19332395 -0.12888263 0.23628482 0.050121024 0.07876161 0.050121024 0.293566 0.43676892 0.13604277 -0.0071601463 -0.10740219 0.31504643
000080 1b cc 1b 10 21 d6 10 f9 0b 89 ce c7 f4 09 3c e4
       0.19332395 -0.3723276 0.19332395 0.11456234 0.23628482 -0.30072615 0.11456234 -0.050121024 0.07876161 -0.8520574 -0.3580073 -0.40812835 -0.08592176 0.064441316 0.42960876 -0.2004841
000090 21 d1 0d 07 d4 ec 09 ea df e6 e7 33 d3 dd d8 ee
       0.23628482 -0.33652687 0.0930819 0.050121024 -0.31504643 -0.14320293 0.064441316 -0.15752321 -0.23628482 -0.1861638 -0.17900366 0.36516747 -0.3222066 -0.2506051 -0.28640586 -0.12888263
0000a0 ea c2 de f5 2c 0d fc d2 dd 24 27 0c ea 0e f2 2d
       -0.15752321 -0.44392908 -0.24344498 -0.07876161 0.31504643 0.0930819 -0.028640585 -0.3293667 -0.2506051 0.25776526 0.2792457 0.08592176 -0.15752321 0.10024205 -0.10024205 0.3222066
0000b0 18 c2 e5 b4 dd 15 c4 2e ae e3 20 21 f3 2d 02 fb
       0.17184351 -0.44392908 -0.19332395 -0.5441711 -0.2506051 0.15036307 -0.42960876 0.3293667 -0.587132 -0.20764424 0.22912468 0.23628482 -0.0930819 0.3222066 0.0143202925 -0.035800733
0000c0 19 b1 f3 cd 1a f1 2f 22 10 05 1e df ed 3c 24 d6
       0.17900366 -0.56565154 -0.0930819 -0.36516747 0.1861638 -0.10740219 0.33652687 0.24344498 0.11456234 0.035800733 0.21480438 -0.23628482 -0.13604277 0.42960876 0.25776526 -0.30072615
0000d0 fb 54 43 0d d2 10 00 dd 00 26 02 01 f6 c4 c8 cd
       -0.035800733 0.6014523 0.4797298 0.0930819 -0.3293667 0.11456234 0.0 -0.2506051 0.0 0.27208555 0.0143202925 0.0071601463 -0.071601465 -0.42960876 -0.4009682 -0.36516747
0000e0 19 21 1e 35 3b 1a 27 d1 fc 05 0e 11 06 f8 df 38
       0.17900366 0.23628482 0.21480438 0.37948775 0.42244864 0.1861638 0.2792457 -0.33652687 -0.028640585 0.035800733 0.10024205 0.12172249 0.04296088 -0.05728117 -0.23628482 0.4009682
0000f0 27 fe 26 d5 13 ec 39 1d cb c5 d2 d9 0e e0 dd 09
       0.2792457 -0.0143202925 0.27208555 -0.3078863 0.13604277 -0.14320293 0.40812835 0.20764424 -0.37948775 -0.42244864 -0.3293667 -0.2792457 0.10024205 -0.22912468 -0.2506051 0.064441316

sequential_1/dense_4/MatMul/ReadVariableOp/transpose i1 [1, 16] scale=0.012511303 zero_point=0
000000 af 4f 56 1e e8 7f e0 ef c9 dd e8 42 f7 24 1f dc
       -1.0134156 0.9883929 1.0759721 0.3753391 -0.30027127 1.5889355 -0.4003617 -0.21269214 -0.6881217 -0.4378956 -0.30027127 0.825746 -0.11260173 0.4504069 0.38785037 -0.4504069
